…
SRC : MNIST: train: count=60000, X.shape=torch.Size([1, 28, 28]) test: count=10000, X.shape=torch.Size([1, 28, 28])
TGT : USPS: train: count=7291, X.shape=torch.Size([1, 28, 28]) test: count=2007, X.shape=torch.Size([1, 28, 28])

Loaded  Source and Target data respectively

Using epoch_size : large
prior_src_train : tensor([0.1015, 0.0996, 0.0989, 0.1003, 0.0996, 0.1005, 0.0981, 0.0996, 0.0997,
        0.1022], device='cuda:0')
prior_tgt_train : tensor([0.0996, 0.1009, 0.1018, 0.1000, 0.1007, 0.0999, 0.0977, 0.1006, 0.1003,
        0.0984], device='cuda:0')

Building Network from SE ...
Encoder : DataParallel(
  (module): Encoder(
    (conv1_1): Conv2d(1, 32, kernel_size=(5, 5), stride=(1, 1))
    (conv1_1_bn): BatchNorm2d(32, eps=1e-05, momentum=0.1, affine=True, track_running_stats=True)
    (pool1): MaxPool2d(kernel_size=(2, 2), stride=(2, 2), padding=0, dilation=1, ceil_mode=False)
    (conv2_1): Conv2d(32, 64, kernel_size=(3, 3), stride=(1, 1))
    (conv2_1_bn): BatchNorm2d(64, eps=1e-05, momentum=0.1, affine=True, track_running_stats=True)
    (conv2_2): Conv2d(64, 64, kernel_size=(3, 3), stride=(1, 1))
    (conv2_2_bn): BatchNorm2d(64, eps=1e-05, momentum=0.1, affine=True, track_running_stats=True)
    (pool2): MaxPool2d(kernel_size=(2, 2), stride=(2, 2), padding=0, dilation=1, ceil_mode=False)
  )
)
Classifier : DataParallel(
  (module): Classifier(
    (fc3): Linear(in_features=1024, out_features=256, bias=True)
    (fc4): Linear(in_features=256, out_features=10, bias=True)
    (drop1): Dropout(p=0.5)
    (fc3_bn): BatchNorm1d(256, eps=1e-05, momentum=0.1, affine=True, track_running_stats=True)
  )
)
Generator : DataParallel(
  (module): Generator(
    (conv1_1): ConvTranspose2d(100, 512, kernel_size=(4, 4), stride=(1, 1), bias=False)
    (conv1_1_bn): BatchNorm2d(512, eps=1e-05, momentum=0.1, affine=True, track_running_stats=True)
    (conv2_1): ConvTranspose2d(512, 256, kernel_size=(3, 3), stride=(2, 2), padding=(1, 1), bias=False)
    (conv2_1_bn): BatchNorm2d(256, eps=1e-05, momentum=0.1, affine=True, track_running_stats=True)
    (conv3_1): ConvTranspose2d(256, 128, kernel_size=(4, 4), stride=(2, 2), padding=(1, 1), bias=False)
    (conv3_1_bn): BatchNorm2d(128, eps=1e-05, momentum=0.1, affine=True, track_running_stats=True)
    (conv4_1): ConvTranspose2d(128, 1, kernel_size=(4, 4), stride=(2, 2), padding=(1, 1), bias=False)
  )
)
Network Built ...

optimizerE : Adam (
Parameter Group 0
    amsgrad: False
    betas: (0.5, 0.999)
    eps: 1e-08
    lr: 0.001
    weight_decay: 0
)
optimizerC : Adam (
Parameter Group 0
    amsgrad: False
    betas: (0.5, 0.999)
    eps: 1e-08
    lr: 0.001
    weight_decay: 0
)
optimizerGS : Adam (
Parameter Group 0
    amsgrad: False
…
