…
TGT : SVHN - transformation : Compose(
    Resize(size=32, interpolation=PIL.Image.BILINEAR)
    CenterCrop(size=(32, 32))
    ToTensor()
    Normalize_RandomInvert_pixels(p=-1)
)

Number of classes : 10

Loaded  Source and Target data respectively

Using epoch_size : large
prior_src_train : tensor([0.1010, 0.1007, 0.0992, 0.1000, 0.0995, 0.1002, 0.1003, 0.0990, 0.1011,
        0.0991], device='cuda:0')
prior_tgt_train : tensor([0.0976, 0.1009, 0.1014, 0.1026, 0.0997, 0.1004, 0.0989, 0.0992, 0.1002,
        0.0991], device='cuda:0')

Building Network from STN ...
Encoder : DataParallel(
  (module): Encoder(
    (conv1): Conv2d(3, 100, kernel_size=(5, 5), stride=(1, 1))
    (bn1): BatchNorm2d(100, eps=1e-05, momentum=0.1, affine=True, track_running_stats=True)
    (conv2): Conv2d(100, 150, kernel_size=(3, 3), stride=(1, 1))
    (bn2): BatchNorm2d(150, eps=1e-05, momentum=0.1, affine=True, track_running_stats=True)
    (conv3): Conv2d(150, 250, kernel_size=(3, 3), stride=(1, 1))
    (bn3): BatchNorm2d(250, eps=1e-05, momentum=0.1, affine=True, track_running_stats=True)
    (conv_drop): Dropout2d(p=0.5)
    (localization): Sequential(
      (0): Conv2d(3, 8, kernel_size=(7, 7), stride=(1, 1))
      (1): MaxPool2d(kernel_size=2, stride=2, padding=0, dilation=1, ceil_mode=False)
      (2): ReLU(inplace)
      (3): Conv2d(8, 10, kernel_size=(5, 5), stride=(1, 1))
      (4): MaxPool2d(kernel_size=2, stride=2, padding=0, dilation=1, ceil_mode=False)
      (5): ReLU(inplace)
    )
    (fc_loc): Sequential(
      (0): Linear(in_features=160, out_features=32, bias=True)
      (1): ReLU(inplace)
      (2): Linear(in_features=32, out_features=6, bias=True)
    )
  )
)
Classifier : DataParallel(
  (module): Classifier(
    (fc1): Linear(in_features=1000, out_features=350, bias=True)
    (fc2): Linear(in_features=350, out_features=10, bias=True)
  )
)
Generator : DataParallel(
  (module): Generator(
    (network): Sequential(
      (0): ConvTranspose2d(100, 512, kernel_size=(4, 4), stride=(1, 1), bias=False)
      (1): BatchNorm2d(512, eps=1e-05, momentum=0.1, affine=True, track_running_stats=True)
      (2): ReLU(inplace)
      (3): ConvTranspose2d(512, 256, kernel_size=(4, 4), stride=(2, 2), padding=(1, 1), bias=False)
      (4): BatchNorm2d(256, eps=1e-05, momentum=0.1, affine=True, track_running_stats=True)
      (5): ReLU(inplace)
      (6): ConvTranspose2d(256, 128, kernel_size=(4, 4), stride=(2, 2), padding=(1, 1), bias=False)
      (7): BatchNorm2d(128, eps=1e-05, momentum=0.1, affine=True, track_running_stats=True)
      (8): ReLU(inplace)
      (9): ConvTranspose2d(128, 3, kernel_size=(4, 4), stride=(2, 2), padding=(1, 1), bias=False)
      (10): Tanh()
    )
  )
)
Network Built ...

optimizerE : Adam (
Parameter Group 0
    amsgrad: False
    betas: (0.5, 0.999)
    eps: 1e-08
    lr: 0.001
    weight_decay: 0
)
optimizerC : Adam (
Parameter Group 0
    amsgrad: False
    betas: (0.5, 0.999)
    eps: 1e-08
    lr: 0.001
    weight_decay: 0
)
optimizerGS : Adam (
…
