…
TGT : CIFAR9 - transformation : Compose(
    Resize(size=32, interpolation=PIL.Image.BILINEAR)
    CenterCrop(size=(32, 32))
    ToTensor()
    Normalize(mean=(0.5, 0.5, 0.5), std=(0.5, 0.5, 0.5))
)

Number of classes : 9

Loaded  Source and Target data respectively

Using epoch_size : large
prior_src_train : tensor([0.1094, 0.1148, 0.1123, 0.1122, 0.1113, 0.1099, 0.1096, 0.1077, 0.1128],
       device='cuda:0')
prior_tgt_train : tensor([0.1114, 0.1086, 0.1134, 0.1121, 0.1104, 0.1100, 0.1124, 0.1121, 0.1096],
       device='cuda:0')

Building Network from SE ...
Encoder : DataParallel(
  (module): Encoder(
    (conv1_1): Conv2d(3, 128, kernel_size=(3, 3), stride=(1, 1), padding=(1, 1))
    (conv1_1_bn): BatchNorm2d(128, eps=1e-05, momentum=0.1, affine=True, track_running_stats=True)
    (conv1_2): Conv2d(128, 128, kernel_size=(3, 3), stride=(1, 1), padding=(1, 1))
    (conv1_2_bn): BatchNorm2d(128, eps=1e-05, momentum=0.1, affine=True, track_running_stats=True)
    (conv1_3): Conv2d(128, 128, kernel_size=(3, 3), stride=(1, 1), padding=(1, 1))
    (conv1_3_bn): BatchNorm2d(128, eps=1e-05, momentum=0.1, affine=True, track_running_stats=True)
    (pool1): MaxPool2d(kernel_size=(2, 2), stride=(2, 2), padding=0, dilation=1, ceil_mode=False)
    (drop1): Dropout(p=0.5)
    (conv2_1): Conv2d(128, 256, kernel_size=(3, 3), stride=(1, 1), padding=(1, 1))
    (conv2_1_bn): BatchNorm2d(256, eps=1e-05, momentum=0.1, affine=True, track_running_stats=True)
    (conv2_2): Conv2d(256, 256, kernel_size=(3, 3), stride=(1, 1), padding=(1, 1))
    (conv2_2_bn): BatchNorm2d(256, eps=1e-05, momentum=0.1, affine=True, track_running_stats=True)
    (conv2_3): Conv2d(256, 256, kernel_size=(3, 3), stride=(1, 1), padding=(1, 1))
    (conv2_3_bn): BatchNorm2d(256, eps=1e-05, momentum=0.1, affine=True, track_running_stats=True)
    (pool2): MaxPool2d(kernel_size=(2, 2), stride=(2, 2), padding=0, dilation=1, ceil_mode=False)
    (drop2): Dropout(p=0.5)
    (conv3_1): Conv2d(256, 512, kernel_size=(3, 3), stride=(1, 1))
    (conv3_1_bn): BatchNorm2d(512, eps=1e-05, momentum=0.1, affine=True, track_running_stats=True)
    (nin3_2): Conv2d(512, 256, kernel_size=(1, 1), stride=(1, 1), padding=(1, 1))
    (nin3_2_bn): BatchNorm2d(256, eps=1e-05, momentum=0.1, affine=True, track_running_stats=True)
    (nin3_3): Conv2d(256, 128, kernel_size=(1, 1), stride=(1, 1), padding=(1, 1))
    (nin3_3_bn): BatchNorm2d(128, eps=1e-05, momentum=0.1, affine=True, track_running_stats=True)
  )
)
Classifier : DataParallel(
  (module): Classifier(
    (fc4): Linear(in_features=128, out_features=9, bias=True)
  )
)
Generator : DataParallel(
  (module): Generator(
    (network): Sequential(
      (0): ConvTranspose2d(100, 512, kernel_size=(4, 4), stride=(1, 1), bias=False)
      (1): BatchNorm2d(512, eps=1e-05, momentum=0.1, affine=True, track_running_stats=True)
      (2): ReLU(inplace)
      (3): ConvTranspose2d(512, 256, kernel_size=(4, 4), stride=(2, 2), padding=(1, 1), bias=False)
      (4): BatchNorm2d(256, eps=1e-05, momentum=0.1, affine=True, track_running_stats=True)
      (5): ReLU(inplace)
      (6): ConvTranspose2d(256, 128, kernel_size=(4, 4), stride=(2, 2), padding=(1, 1), bias=False)
      (7): BatchNorm2d(128, eps=1e-05, momentum=0.1, affine=True, track_running_stats=True)
      (8): ReLU(inplace)
      (9): ConvTranspose2d(128, 3, kernel_size=(4, 4), stride=(2, 2), padding=(1, 1), bias=False)
      (10): Tanh()
    )
  )
)
Network Built ...

optimizerE : Adam (
Parameter Group 0
    amsgrad: False
    betas: (0.5, 0.999)
    eps: 1e-08
    lr: 0.001
    weight_decay: 0
)
optimizerC : Adam (
Parameter Group 0
    amsgrad: False
    betas: (0.5, 0.999)
    eps: 1e-08
    lr: 0.001
    weight_decay: 0
)
optimizerGS : Adam (
…
