…
    Resize(size=32, interpolation=PIL.Image.BILINEAR)
    CenterCrop(size=(32, 32))
    ToTensor()
    Normalize_RandomInvert_pixels(p=-1)
    <util.RandomClampTensors object at 0x7fb75888f5f8>
)

Number of classes : 10

Loaded  Source and Target data respectively

Using epoch_size : large
prior_src_train : tensor([0.0995, 0.0983, 0.1009, 0.1001, 0.1008, 0.1006, 0.0996, 0.1007, 0.0990,
        0.1005], device='cuda:0')
prior_tgt_train : tensor([0.1015, 0.0982, 0.1007, 0.0995, 0.1011, 0.0982, 0.0998, 0.0990, 0.0993,
        0.1028], device='cuda:0')

Building Network from SE ...
Encoder : DataParallel(
  (module): Encoder(
    (conv1_1): Conv2d(1, 32, kernel_size=(3, 3), stride=(1, 1), padding=(1, 1))
    (conv1_1_bn): BatchNorm2d(32, eps=1e-05, momentum=0.1, affine=True, track_running_stats=True)
    (conv1_2): Conv2d(32, 32, kernel_size=(3, 3), stride=(1, 1), padding=(1, 1))
    (conv1_2_bn): BatchNorm2d(32, eps=1e-05, momentum=0.1, affine=True, track_running_stats=True)
    (pool1): MaxPool2d(kernel_size=(2, 2), stride=(2, 2), padding=0, dilation=1, ceil_mode=False)
    (conv2_1): Conv2d(32, 64, kernel_size=(3, 3), stride=(1, 1), padding=(1, 1))
    (conv2_1_bn): BatchNorm2d(64, eps=1e-05, momentum=0.1, affine=True, track_running_stats=True)
    (conv2_2): Conv2d(64, 64, kernel_size=(3, 3), stride=(1, 1), padding=(1, 1))
    (conv2_2_bn): BatchNorm2d(64, eps=1e-05, momentum=0.1, affine=True, track_running_stats=True)
    (conv2_3): Conv2d(64, 64, kernel_size=(3, 3), stride=(1, 1), padding=(1, 1))
    (conv2_3_bn): BatchNorm2d(64, eps=1e-05, momentum=0.1, affine=True, track_running_stats=True)
    (pool2): MaxPool2d(kernel_size=(2, 2), stride=(2, 2), padding=0, dilation=1, ceil_mode=False)
    (conv3_1): Conv2d(64, 128, kernel_size=(3, 3), stride=(1, 1), padding=(1, 1))
    (conv3_1_bn): BatchNorm2d(128, eps=1e-05, momentum=0.1, affine=True, track_running_stats=True)
    (conv3_2): Conv2d(128, 128, kernel_size=(3, 3), stride=(1, 1), padding=(1, 1))
    (conv3_2_bn): BatchNorm2d(128, eps=1e-05, momentum=0.1, affine=True, track_running_stats=True)
    (conv3_3): Conv2d(128, 128, kernel_size=(3, 3), stride=(1, 1), padding=(1, 1))
    (conv3_3_bn): BatchNorm2d(128, eps=1e-05, momentum=0.1, affine=True, track_running_stats=True)
    (pool3): MaxPool2d(kernel_size=(2, 2), stride=(2, 2), padding=0, dilation=1, ceil_mode=False)
  )
)
Classifier : DataParallel(
  (module): Classifier(
    (drop1): Dropout(p=0.5)
    (fc4_bn): BatchNorm1d(128, eps=1e-05, momentum=0.1, affine=True, track_running_stats=True)
    (fc4): Linear(in_features=128, out_features=128, bias=True)
    (fc5): Linear(in_features=128, out_features=10, bias=True)
  )
)
Generator : DataParallel(
  (module): Generator(
    (network): Sequential(
      (0): ConvTranspose2d(100, 512, kernel_size=(4, 4), stride=(1, 1), bias=False)
      (1): BatchNorm2d(512, eps=1e-05, momentum=0.1, affine=True, track_running_stats=True)
      (2): ReLU(inplace)
      (3): ConvTranspose2d(512, 256, kernel_size=(4, 4), stride=(2, 2), padding=(1, 1), bias=False)
      (4): BatchNorm2d(256, eps=1e-05, momentum=0.1, affine=True, track_running_stats=True)
      (5): ReLU(inplace)
      (6): ConvTranspose2d(256, 128, kernel_size=(4, 4), stride=(2, 2), padding=(1, 1), bias=False)
      (7): BatchNorm2d(128, eps=1e-05, momentum=0.1, affine=True, track_running_stats=True)
      (8): ReLU(inplace)
      (9): ConvTranspose2d(128, 1, kernel_size=(4, 4), stride=(2, 2), padding=(1, 1), bias=False)
      (10): Tanh()
    )
  )
)
Network Built ...

optimizerE : Adam (
Parameter Group 0
    amsgrad: False
    betas: (0.5, 0.999)
    eps: 1e-08
    lr: 0.001
    weight_decay: 0
)
optimizerC : Adam (
Parameter Group 0
    amsgrad: False
    betas: (0.5, 0.999)
    eps: 1e-08
    lr: 0.001
    weight_decay: 0
)
optimizerGS : Adam (
…
